weights1.bin (npy, 157728 bytes, 1 tensors)

array f8 [100, 197]
-0.13635047848548645 -0.14359483009025595 -0.1445207709592428 -0.14277892497856226 -0.1414236730330495 -0.14013494015814873 -0.1370234553913241 -0.14132661534602312
-0.14258448214098385 -0.135097235768393 -0.13720312034738563 -0.1449408389882846 -0.1361079386545049 -0.14458076978556547 -0.13543316664307423 -0.1402841359522006
-0.14420519287880731 -0.5194575473565097 1.235512738693683 -1.5039077368742717 0.7114516928286575 -3.122253627422372 -7.041015724170026 0.6908502442011014
-1.1032542910516148 -0.14165774317437987 -0.13777527070176515 -0.1365132409123938 -0.14032449095587698 -0.1352445120965432 0.03495273721325092 -7.034926278151915
6.955182398315772 -7.416200199159907 -6.828979486680818 -8.749167954934094 -11.518048563686138 -17.533608827494866 10.32128714638794 10.030927522198617
2.5645410052206254 0.012684810503363952 -0.1433705519254755 -0.6761345454318531 3.263635069551701 11.113567495288615 22.265685827118205 0.9245461090500825
-13.219617296037098 -39.34665650766322 -6.750274662047544 -12.306402823325184 -18.250707024738915 -1.551026168833265 -2.438566846676281 1.0985120371610697
-0.13558188561825166 -0.29506503806468415 15.044484096272578 10.56870678684943 -23.099807523334388 -12.887173201816433 -9.045492593821669 5.17032965104819
23.398712087845684 -1.3797903861280931 -33.30476789770239 -11.181443413539123 0.8880543094958405 -6.562185941744121 0.02946773794290843 -0.6829671131579286
-4.202862443323173 -12.17160775942396 -96.84233654324014 -64.98179005302889 27.349440167201802 26.846790393959616 -0.21008813779436444 -8.352941851677658
-35.55165603588035 -2.2315326310642725 3.122023834631497 -0.26321221025175956 -0.14120361366889264 -1.707278676185154 3.460758233799851 9.303115483396482
-29.843160715194642 25.095290475202393 30.55341216841835 -20.062851110236902 -16.376490151870172 -1.417864832621979 -24.865580717729944 -2.8804428729505007
4.05161188057674 -0.1403015107162652 -0.1429780478666806 -0.1414693762028423 12.136662636936423 41.40403470359274 36.06121887717065 -3.2994762570235387
-3.7333258174787343 -46.03113188915081 -20.473836492655867 -11.089717449158854 9.617642555304991 34.286280212827506 15.945069284852016 2.555942098712496
-0.13675679572483002 -0.13629362044833673 1.5715450297110838 24.64533778224813 -21.92545833632288 9.780352740553989 -43.028982024539545 -73.8100154284291
-14.623352380489507 -3.7932609339140053 32.042639673054445 33.51389120255122 -0.383586506591072 -1.0966402359863714 -0.13693184809409487 -0.14378246523701266
6.704324279069196 -21.354901725109592 -55.51368303305905 -15.29221038991671 -95.35418712869514 -84.18053171887513 2.870882075673354 29.24914964972039
10.303245364944216 -19.039738809284838 -10.737798289978985 -1.208256577835151 -0.1392862088351901 0.1285612433538361 0.664351532054996 -18.79204112057267
-19.931648693125247 -44.53090822412883 17.316852265332003 26.32982968058552 13.825256029423118 22.69010332229824 -13.201907183049668 -20.87259855717355
-22.50562788744849 -5.551544720653044 -0.13584622245481157 -0.07433324478313204 3.914953292387511 15.774705684787136 15.60819728074884 -29.72850878379066
-2.522759926995657 19.595655481029652 33.07162107159398 5.868408875758435 -42.460727361336346 -43.547552594126 -0.4599948996464512 -0.1642793076977775
-0.13503382393344138 -0.13978014827947888 7.925952744434716 20.483386882054067 42.88632987147562 65.26749485641095 -8.468816835545514 -20.53136994237244
-14.125579791552731 -18.84669339001332 -28.29313424156199 -8.077773354332773 -1.3012376976516338 -0.13999866823518806 -0.13639832117319686 -0.13995252581259168
-0.13710776598830365 -1.0870164416810066 3.6818205539961775 -6.17615948076448 -13.59346787273747 -32.97196684765515 -0.7051313578840156 -7.963400151434832
4.0983573422187565 -0.18841689114047114 -0.13722953070735033 -0.13939548430089227 -14.496307455968454 0.7582426675598258 0.7572609268138691 0.7550901300080292
0.7594212910113926 0.7517073702302962 0.7538835305507349 0.7553733541065925 0.7571186253421839 0.7539445636603422 0.7548786428681252 0.7530329915064063
0.759526001205631 0.7589471857147797 0.7516114653050362 0.7553439455337 0.7557905143211997 0.7586744500594332 0.38270350770200773 -6.901057771271539
-5.603462189216598 -2.849668856585374 -6.506987700894172 -7.447564246523853 -0.0036741644562931584 2.725352241596058 0.7595154834582808 0.7585788230801788
0.7516147742611644 0.7578498118103371 0.7605615338418527 1.1476022053040011 3.3791773451605542 -29.750895442857328 -37.3207739844449 -82.23147111039606
-82.62150955993724 -32.816821837571794 10.364287785667488 41.09173901067958 4.121546532648457 -0.5345999161566896 -2.985085158716471 0.7527378107983514
0.9826273151986475 5.805532546670224 -9.179082199808535 -45.26574004333 -37.55968574063578 -121.00547436102227 -153.7424605494273 -93.7604288508644
-63.81352463055159 -7.951678502015966 -17.5484559874303 -8.819268357619308 -2.776246165563266 0.7575189075554197 1.2004122480855826 1.8633851835688664
00000000: 8dce f1b6 ee73 c1bf b360 8ebd 5061 c2bf
00000010: 756b 6e18 a87f c2bf a8a4 ab6e 9446 c2bf
00000020: 8550 47c1 2b1a c2bf 0bca 8014 f1ef c1bf
00000030: 4867 d80d fc89 c1bf d996 7b93 fd16 c2bf
00000040: 3037 db53 3540 c2bf 36df b3c0 dd4a c1bf
00000050: da8c 6631 df8f c1bf 2d9d a7e1 6b8d c2bf
00000060: 15a0 9f24 fc6b c1bf 6104 ee66 9f81 c2bf
00000070: db4a c3be df55 c1bf 15fa 07a0 d4f4 c1bf
00000080: f9f6 a9d5 5075 c2bf 82cf 316f 659f e0bf
00000090: 34b1 6701 a9c4 f33f d038 218f 0110 f8bf
000000a0: e540 2c57 36c4 e63f 8bc5 1c1c 60fa 08c0
000000b0: 63ba a706 002a 1cc0 01e0 a8f8 711b e63f
000000c0: 49d0 b3f8 eda6 f1bf 555e 1447 d721 c2bf
000000d0: d649 eebc 9ea2 c1bf 1c48 9810 4479 c1bf
000000e0: 11de bd25 27f6 c1bf 4485 3532 b14f c1bf
000000f0: f722 793e 53e5 a13f e1bb d9b6 c323 1cc0
00000100: a2ec a955 1bd2 1b40 05ec 8f62 30aa 1dc0
00000110: 5b65 a1ff df50 1bc0 684e 33f1 927f 21c0
00000120: 218b 4da9 3d09 27c0 86f2 8e96 9a88 31c0
00000130: 05b9 b4bf 7fa4 2440 5cc7 70bb d50f 2440
00000140: 6f63 1513 2e84 0440 a0ab 2472 7efa 893f
00000150: 8e5c dd5b f759 c2bf 9b6b 0aea e4a2 e5bf
00000160: 0a6d 0eb4 ec1b 0a40 754e cc84 253a 2640
00000170: c07b 82fc 0344 3640 f373 c0b8 e195 ed3f
00000180: 073b a0ad 7170 2ac0 f7ad 8d3d 5fac 43c0
00000190: ef0b 4200 4800 1bc0 df2a b3d4 e09c 28c0
000001a0: 9021 e855 2e40 32c0 9410 e6d0 00d1 f8bf
000001b0: 00ad bc55 2f82 03c0 f6e7 9d5b 8193 f13f
000001c0: 1b88 544a bf5a c1bf 7392 2b78 58e2 d2bf
000001d0: 9d5d 959e c616 2e40 2710 3589 2d23 2540
000001e0: af9d 60fc 8c19 37c0 dd60 df90 3bc6 29c0
000001f0: 3b59 25ce 4a17 22c0 0e2a 63e5 6aae 1440
00000200: 2dd1 d1fe 1166 3740 0116 7c15 9f13 f6bf
00000210: 50c0 6ca2 02a7 40c0 4573 ae26 e65c 26c0
00000220: 6d68 0bdf f06a ec3f 733f e8ab ad3f 1ac0
00000230: 75ef 016b ca2c 9e3f fd37 e8d8 ddda e5bf
00000240: 84a3 1e2c bbcf 10c0 76ee e4f8 dc57 28c0
00000250: 4b5c 88d7 e835 58c0 0553 f2a5 d53e 50c0
00000260: 5f0a 2ae9 7459 3b40 9e9f 5841 c7d8 3a40
00000270: e95a 8d08 2be4 cabf c1b0 5ccb b4b4 20c0
00000280: a15f 3caa 9cc6 41c0 e805 b3c7 2dda 01c0
00000290: 2c99 d8a1 e7f9 0840 941b bc06 78d8 d0bf
000002a0: 0378 64c3 f512 c2bf 7df9 f571 0351 fbbf
000002b0: c043 4c03 a2af 0b40 c032 e0f3 319b 2240
000002c0: 7008 7161 d9d7 3dc0 559d e2f4 6418 3940
000002d0: b590 7c6b ac8d 3e40 1bfc a602 1710 34c0
000002e0: 688c 99a8 6160 30c0 9b28 e408 93af f6bf
000002f0: c5b2 aab2 96dd 38c0 aa8c 0aa2 250b 07c0
00000300: 0ca6 acbe d934 1040 4d89 0d60 66f5 c1bf
00000310: 7e10 d1cb 1a4d c2bf 099f 1624 ab1b c2bf
00000320: 4174 28a5 f845 2840 a030 bf68 b7b3 4440
00000330: 43ac 2905 d607 4240 b8c1 cece 5365 0ac0
00000340: ac11 1bed d9dd 0dc0 f9e1 3621 fc03 47c0
00000350: b99b 2f59 4d79 34c0 2009 0c72 ef2d 26c0
00000360: 3d4e 1fa5 3b3c 2340 04cb 7bd4 a424 4140
00000370: 7bc9 0d1f e0e3 2f40 a884 63c5 9172 0440
00000380: 3c6b 9226 3f81 c1bf 4951 3dc1 1172 c1bf
00000390: a8ce ac66 0c25 f93f ffa0 5ddb 34a5 3840
000003a0: 3d51 68d6 eaec 35c0 f50b f864 8a8f 2340
000003b0: dcc8 d7ae b583 45c0 f096 f34a d773 52c0
000003c0: 202c 100b 283f 2dc0 2fd7 4230 9958 0ec0
000003d0: f7a3 8037 7505 4040 6e54 da2f c7c1 4040
000003e0: f9b6 3f6b ae8c d8bf 83a0 d0a1 d68b f1bf
000003f0: 3828 ac98 fb86 c1bf 6c32 f7bc 7667 c2bf
00000400: 1e86 4162 3ad1 1a40 c2a3 e6d6 da5a 35c0
00000410: d6bf 995d c0c1 4bc0 c37c a899 9c95 2ec0
00000420: 3a9a 7d00 abd6 57c0 661d e9d4 8d0b 55c0
00000430: 6984 8d05 91f7 0640 e35b 7d45 c83f 3d40
00000440: af32 faf9 429b 2440 a742 9652 2c0a 33c0
00000450: 4902 8db2 c079 25c0 61a9 6fd9 0455 f3bf
00000460: 5a90 dd67 21d4 c1bf ff70 dedf b174 c03f
00000470: 9428 e724 5e42 e53f 62f2 f534 c3ca 32c0
00000480: 8655 5c87 80ee 33c0 c7e7 f9cc f443 46c0
00000490: b443 e53a 1d51 3140 6c5d cbb7 6f54 3a40
000004a0: f165 52f5 87a6 2b40 c321 809c aab0 3640
000004b0: 370d d860 6067 2ac0 e198 799e 62df 34c0
000004c0: 6e89 48d4 7081 36c0 f3f1 a523 c834 16c0
000004d0: 5741 5db5 6863 c1bf 955f 59e7 8007 b3bf
000004e0: 0660 2108 d351 0f40 405f 3839 a68c 2f40
000004f0: 30aa 4ca2 6537 2f40 c83a 398d 7fba 3dc0
00000500: 76d8 b0c1 9c2e 04c0 9cb4 aae0 7c98 3340
00000510: ae19 18e1 2a89 4040 22c1 232d 4079 1740
00000520: efa7 3a1d f93a 45c0 3a4e 1234 16c6 45c0
00000530: 59bb 9372 8e70 ddbf 4e59 fcb6 1a07 c5bf
00000540: 1ef0 d2d0 c948 c1bf 2ec5 bede 50e4 c1bf
00000550: 47f4 cbf4 2cb4 1f40 d5bc 213e bf7b 3440
00000560: 53ba d941 7371 4540 8708 bfa2 1e51 5040
00000570: e2f6 a0c2 08f0 20c0 2991 4cdc 0788 34c0
00000580: d483 93fe 4b40 2cc0 bad8 e3e5 c0d8 32c0
00000590: b5d8 7cd8 0a4b 3cc0 0eb8 bae8 d127 20c0
000005a0: 14c7 bb9e ded1 f4bf 35df c6f2 79eb c1bf
000005b0: 1587 550c 8075 c1bf 5dc8 ade0 f6e9 c1bf
000005c0: ec43 794d bf8c c1bf 58bf 335a 6b64 f1bf
000005d0: c53b a955 5e74 0d40 1d0e a326 63b4 18c0
000005e0: ac44 6105 db2f 2bc0 d0bc df68 697c 40c0
000005f0: 91de 2fa3 6f90 e6bf 077f bd91 85da 1fc0
00000600: aa9a 80c9 b764 1040 292d bb70 0b1e c8bf
00000610: d87c 37bd bc90 c1bf 2226 2413 b6d7 c1bf
00000620: 7b4a c802 1cfe 2cc0 753d 7320 8643 e83f
00000630: f388 6644 7b3b e83f 0757 bdc6 b229 e83f
00000640: 01f6 18e1 2d4d e83f 23a4 699d fc0d e83f
00000650: 67ab 965a d01f e83f 670b 85bd 042c e83f
00000660: 6330 e1d6 503a e83f 9161 7d59 5020 e83f
00000670: a528 7241 f727 e83f ab87 eaa4 d818 e83f
00000680: 9579 f478 094e e83f b128 c19b 4b49 e83f
00000690: a314 d97c 330d e83f 2790 e910 c72b e83f
000006a0: cd5e b496 6f2f e83f 171d eaa3 0f47 e83f
000006b0: 3f41 69da 367e d83f f0ab 6de3 ae9a 1bc0
000006c0: 3e3b fcfd f169 16c0 0fb6 7b2f 1fcc 06c0
000006d0: 4042 abc8 2707 1ac0 1fb7 2648 4eca 1dc0
000006e0: 94c7 c105 4819 6ebf 04e2 dd79 85cd 0540
000006f0: 4749 486a f34d e83f 4529 9218 4746 e83f
00000700: 478c 546d 3a0d e83f 352a a03f 4e40 e83f
00000710: 8948 4e24 8556 e83f 1392 4921 945c f23f
00000720: 1bca c621 8e08 0b40 a4c9 09af 3ac0 3dc0
00000730: 9a4c 361f 0fa9 42c0 ac47 346c d08e 54c0
00000740: 3c85 08d0 c6a7 54c0 c683 339e 8d68 40c0
00000750: 598c bbed 83ba 2440 6f51 991a be8b 4440
00000760: 56ab bab1 767c 1040 5bcb 8a48 711b e1bf
00000770: 9cb2 e353 74e1 07c0 05ee fa9a 6d16 e83f
00000780: 38e7 ddd6 ae71 ef3f b33f 1f86 dd38 1740
00000790: 61f2 7ea9 b05b 22c0 84ab 0dc5 03a2 46c0
000007a0: bb08 48c8 a3c7 42c0 a863 22b1 5940 5ec0
000007b0: 894b a03c c237 63c0 7059 c5dd aa70 57c0
000007c0: d35a 3993 21e8 4fc0 00dc 29cf 84ce 1fc0
000007d0: fc4e 919c 678c 31c0 c03e 6524 77a3 21c0
000007e0: c3ea b58c c035 06c0 6bab c14a 983d e83f
000007f0: 39ed 3379 e334 f33f c277 74fb 6cd0 fd3f
