weights2.bin (npy, 8208 bytes, 1 tensors)

array f8 [10, 101]
0	0x3fe450ff3b15519e	0.6348873285265204
1	0xbfe7e1660e559f8a	-0.7462644844026596
2	0x3fe9a307f880a893	0.8011512616697182
3	0x3ff1113eb1871456	1.0667101797746645
4	0x3fc18bd27331f3d2	0.13707953095209163
5	0xbfe520cb04f668f4	-0.6602530571865644
6	0xbfe75da8e50e9d2e	-0.730183074357148
7	0x3fbac2da1dc6c519	0.10453570582355488
8	0x3fec4058a25f4fd0	0.8828547641119204
9	0x3fc0fd015168794e	0.13272110438351564
10	0x3fb9bed92baf7ddc	0.10056836430111765
11	0xbfe1ad1b1b47f162	-0.552381089480644
12	0xbfe662588a4fae3f	-0.6995051099197055
13	0x3ffb686080360af1	1.7129826553579586
14	0x3fee2210e68db764	0.9416584494590379
15	0xbfd8ab7fd7d1fdc1	-0.38546749187659307
16	0x3fe61dd5dffcad8e	0.6911420225855396
17	0x3fee5b1f4be2f847	0.9486233217392134
18	0xbfe9ccf0a9c3d2e1	-0.8062671008798042
19	0xbfec2c5c7ae93a8c	-0.880415191708225
20	0xbfde7a85af1d5276	-0.4762281618216443
21	0x3fda7d7228a432c7	0.4139066120995207
22	0x3fe7d3e821f9bdf8	0.7446175254426057
23	0xbfd660e405ee4170	-0.3496637399594169
24	0xbfd9cd04680c45a5	-0.4031382576077596
25	0x3fd58a3010a5db13	0.3365593111588378
26	0xbfd7c2eef833de49	-0.37127279509102046
27	0x3fd287bfb5cd703c	0.289535453359125
28	0x3fda5debd52dfb3f	0.41198249643632673
29	0xbfdf5b07afae8f2e	-0.4899310317652973
30	0xbff1dc87f8cceb2e	-1.116340610386668
31	0xbff13c438fd202b7	-1.0772128694517684
32	0x3ff3df4851a31350	1.2420123280473554
33	0xbfe4f3af98c3bb38	-0.654746816986381
34	0x3fd071f57d9ce6d6	0.2569555021942568
35	0xbfea3db6a240812e	-0.8200333756431399
36	0xbfe356a5bcbb72c3	-0.6043270765472574
37	0x3f9c584549054202	0.027680475789852117
38	0xbfefef63e2236d51	-0.9979724327817313
39	0x3fe542f60dc441ad	0.6644239682082592
40	0x3ff0b42f62b036da	1.0439905028355754
41	0xbff52a02f3dfc36d	-1.322756722100361
42	0xbfdb7b02c03d2fae	-0.4293829800924368
43	0xbfec5398664853c5	-0.8852045057016019
44	0xbff1ebe4dbf40a6f	-1.1200913040089764
45	0xbfc659fd211e9ce5	-0.1746212398258883
46	0xbfe34957f6f7ad76	-0.602703077658062
47	0xbffa7ec00f255438	-1.6559448806413126
48	0xbfe19e11f695689f	-0.5505456749044874
49	0xbff28121860dad38	-1.1565261112653626
50	0x3fdf3580f009925a	0.4876406044116145
51	0xbfd6a42fe79e138a	-0.35377118700881083
52	0xbfcb1211165bdb30	-0.21148885337580614
53	0x3fd3a2c56a8b067b	0.30680976299854706
54	0x3fb704cd2e8a7877	0.08991701494457681
55	0xbfe1bf51939ba47f	-0.5546043284386001
56	0xbfa4792e09b5056c	-0.03998702877516788
57	0xbfe41a41dca23218	-0.6282052335023449
58	0xbfe0f96a66935d29	-0.5304462436132883
59	0xbfd78b65ae2a7c6d	-0.36788312919993055
60	0xbfe3a31480119844	-0.6136572362272621
61	0xc0033850a699191f	-2.402497579142746
62	0xbfe0245fea396992	-0.5044402670567243
63	0xbfe5fe2af8f791dd	-0.6872763502729488
64	0xbff189d696a53f9f	-1.0961519131269382
65	0xbfd2d5f8c218cf9a	-0.29430979685570835
66	0xc00003c95a5f41ab	-2.0018488941497785
67	0xbff4bf58a67c3e9d	-1.29671540292103
68	0x3fed64f67801c2dc	0.9185745567211501
69	0xbfe55aba70663c4c	-0.6673252291965439
70	0xbfabb661aa4421bf	-0.05412583545154658
71	0x3fe966e93ab94ec2	0.7938123843145706
72	0xbff47a5068b3b275	-1.2798618402404405
73	0xbff47bbb6667d083	-1.2802080154624782
74	0xbfcd6034644a056e	-0.22949843308382917
75	0xbfb0ffeb64c24934	-0.06640502176222612
76	0x3ff2859bec4838fa	1.15761940286353
77	0x3fe9614983145d6b	0.7931258735797376
78	0xbfd70105d8c13afe	-0.35943742911778986
79	0xbfff31efdd2de920	-1.9496916427438649
80	0xbfe2509dad99ecd7	-0.5723408117914016
81	0xc003b936d4b8c1e4	-2.465436612976406
82	0x3fd187a718fa38df	0.27390458525850464
83	0x3fc91234d6508d68	0.19586811508734603
84	0xbfc521e831b93e80	-0.165097259787661
85	0xbfc1efb342f7ba45	-0.14012757081896346
86	0xbfd20008f3f6f873	-0.2812521345584919
87	0xbfec830a30d8f16c	-0.8909960702945177
88	0xbfeceeab238840a3	-0.9041343397130003
89	0xbfc779b18f3acad5	-0.18340129369388217
90	0xbff2717863adb9d0	-1.1527027028747519
91	0x3ff013d45efbace5	1.0048412046697248
92	0x3ff681dfff9dff0f	1.4067077622457338
93	0xbfff8d99b16d8363	-1.9720704012654202
94	0x3fd97211b72dd30e	0.3975872315270842
95	0xbfc0ab9cfe3cf3e7	-0.1302372208973843
96	0x3ff10c10019e0c1a	1.0654449523142433
97	0x3fcaebd0f6db383e	0.21032154134303654
98	0xbfe07dc9936700bb	-0.5153549078895802
99	0xbfefb102f940cf48	-0.9903578632570111
100	0xc00aecbf67ad5af3	-3.365599451043971
101	0xbfda5d09ae37caed	-0.4119285775515625
102	0x3fb5bf4540d68775	0.0849498065277013
103	0x3fb42a8aba04e101	0.07877413789254108
104	0x3fda47186751891b	0.4105893143624983
105	0xbfddfb379ec30b24	-0.46845808509913156
106	0x3ff33044b7b7894e	1.1992842842524456
107	0x3fe7e852a5d620c6	0.7471097220414087
108	0x3fd661714fc65882	0.34969742575174945
109	0xbfd6ae3790bbde1f	-0.3543833650032599
110	0xbfe692fea3e61c4a	-0.7054436875486172
111	0xbfeb92f574f697a8	-0.861689308589793
112	0x3fd59a9a350bfee5	0.33756117992741813
113	0xbfdd83a1c5c7c3c0	-0.4611591750572721
114	0xbff0911db05d7d55	-1.0354287041917207
115	0x3fd0be8075f156bb	0.26162730710835164
116	0x3ff39ef19ee506fb	1.2263046461889064
117	0xbfc9ac9bffc06723	-0.20058011997098743
118	0xbfdee7583c3ea41f	-0.4828701580359524
119	0xbfef6e3cb56ba461	-0.9822066825264636
120	0xbfb8332bce88504d	-0.094530809329002
121	0x3ff90d2a6c5befb5	1.5657142861154913
122	0xbfd37f4522e29c00	-0.30464294821507565
123	0xc00207eff1e7077d	-2.253875627387002
124	0xbfc2a2fbb6ef6745	-0.14559885437375378
125	0x3ff4c39174b4df1b	1.2977461394165803
126	0xbff484e29449a258	-1.28244264530999
127	0x3fd7974720643e45	0.3686082664798714
128	0xbfc0d9bb9ae40229	-0.13164467871685417
129	0xbfd7c44e75e8af39	-0.3713565970854123
130	0xbfb3ad74acb87666	-0.07686547486124481
131	0xbfe7f30327e2a48a	-0.7484145907411783
132	0xbfdcf9a2828a0bb9	-0.4527364992902068
133	0xbfd6e735368e4c95	-0.3578618080875427
134	0x3ff963c4b924d843	1.5868575317558828
135	0xbff50736c6f34e86	-1.314261223936144
136	0xbfea21e21b467646	-0.8166361363143515
137	0xbffed3d6d5e3b75f	-1.9267185549792527
138	0xbfd76dacbb004a53	-0.36606901418523313
139	0xc003f325c036466d	-2.493724347740502
140	0xbfd947b51fa24e0a	-0.39500167931802876
141	0x3fdacf78907812ab	0.4189130221205157
142	0xbfb7853fe87bfbcc	-0.09187697816740509
143	0x3fea0524cb31ed29	0.813127896180423
144	0x3fd9ac9fb62f0ef5	0.4011611251009833
145	0xbffb27363e3156b5	-1.697073214474057
146	0x3fe5115cf56c0eb5	0.6583695214653377
147	0xbfee026aa6364c36	-0.9377949949579321
148	0xbfe5c6c5ab4d3c39	-0.6805141778694469
149	0x3fd05f20c0a30438	0.2558061486452661
150	0xbff2228f973ad957	-1.1334377200524466
151	0xbff59dd0d37248ca	-1.3510292300821214
152	0xbf901a229ca975a8	-0.015724697887312594
153	0xbfb5cb7f224ae1dd	-0.0851363619539209
154	0xbfbc9eec34b5e70a	-0.11179996764067482
155	0x3fe96ab18c4504d7	0.7942741145745015
156	0x3fe8f3dd8be192ea	0.7797687274984046
157	0xbfe394b3ed8ea76b	-0.611902202586163
158	0xbfc5b63d6eab62f8	-0.1696240225199046
159	0x3fa15c7549b1b7de	0.03390852474772975
160	0x3f62813f0962c87b	0.0022588950333438085
161	0x3fc727238ea30196	0.18088192429241862
162	0xbfcc6f4b8690e1fb	-0.22214645453074397
163	0xbfee5b607f06983d	-0.9486544114086041
164	0xbfda2d202b41fd00	-0.4090042517127159
165	0x3f6eafd401e4102c	0.0037459507722150866
166	0x3fd617cdc052d6b2	0.3452028635177654
167	0xbfe033b18f034507	-0.506310252496548
168	0xbfd07391fc2ae354	-0.25705384851203417
169	0x3fdade68a5590ded	0.4198247542119294
170	0xbfd8f3e4d650c769	-0.3898861020016882
171	0xbfe01b30e68e4693	-0.5033192160646699
172	0xbfe94410153f4a0d	-0.7895584502205694
173	0xbfd8b95e0c25a53e	-0.3863139265655099
174	0xbfdbde232a1a8c66	-0.4354331885498993
175	0x3faa8e9a61511290	0.05186922491023893
176	0xbfe07f325d066b61	-0.5155269448181167
177	0xbfdddc0fa6964f3d	-0.4665564658000568
178	0xbfdad64f513963fd	-0.4193304341511633
179	0x3fb79bd541308456	0.0922215732721424
180	0x3fd06bf015eca774	0.2565880025964511
181	0xbff4392e5734c1d1	-1.2639602095115274
182	0xbf971d25cf95412c	-0.02257212714658967
183	0xbfde56e6012b8581	-0.4740538608003462
184	0xbfd1cb843b3e6643	-0.2780466631462312
185	0xbfc1df76cff691d0	-0.13963208345843592
186	0xbfea23b31fffc36e	-0.8168578743917416
187	0xbfde811be2e4b6c8	-0.47663018376884425
188	0x3fd5ed762dbd8d80	0.3426185080226887
189	0xbfe6555f69469f07	-0.6979214721841068
190	0xbfd348459b65f726	-0.3012861268579051
191	0x3ff61d5e35c2f7ae	1.3821699237882785
192	0xbfe09e5853f223c1	-0.5193292274062672
193	0xbfcee95863e8c18b	-0.24149613264445366
194	0xbfe566fb76a1cf0e	-0.6688210789711506
195	0x3ff09070a3a94b1e	1.0352636712092997
196	0x3ffa45a7db1d0e14	1.642005782997221
197	0xbfd90d558658f8b3	-0.391438847731375
198	0xbfebc314d32f6ec9	-0.8675636410439093
199	0xbfe1d0fe074f6a24	-0.556761755254517
200	0xbff6bf454c774167	-1.4216969477602903
201	0xc0024c230ecc571f	-2.2871762424573627
202	0xbff1fac93faba295	-1.1237270819785057
203	0xbfe8756a4eff8122	-0.7643329184466305
204	0xbfeab503fb597d0c	-0.8345966252490213
205	0x3fcb298bf1c8ec32	0.21220540338421895
206	0xbfc33a2268105d7e	-0.15021162110563674
207	0xbff457177f706b28	-1.2712626436320509
208	0xbfdf946327996403	-0.4934318434439435
209	0xbfe1eee535c3d924	-0.5604120302294047
210	0xbfe7839d1fd0ab31	-0.7348161336316023
211	0x3ffc988c1b27e83f	1.7872429905678613
212	0x3fb0b7e7d76434b8	0.06530617722110577
213	0xbff9dbb816ccd6b2	-1.6161423578864
214	0x3fc33fa0ce4993c3	0.15037927696826445
215	0x3ff8db35e18c66b9	1.553518181847194
216	0xbfe27c70f066bfa1	-0.5776905722941487
217	0xbfdb2014992d0e28	-0.42383303602784617
218	0x3fc4886c44c4e9b7	0.1604132972514216
219	0xbfe62b871c18f4c2	-0.692813448789501
220	0x3ff26f720d162647	1.1522083769981621
221	0xbff174ee3e01f8c3	-1.0910475179839956
222	0xbfc12ca2779a5591	-0.13417464103683277
223	0x3febf0e8231b558d	0.8731575666121657
224	0x3ffdd106e5bfc2b9	1.8635319685528613
225	0x3ff02b859f7bcb67	1.0106254796816871
226	0xbfed9af5440057cc	-0.9251657798911253
227	0xbfd5447c8067cb3c	-0.3323050741156981
228	0x3fbb39ec9328c633	0.10635260193591804
229	0x3fe6fedf3db66793	0.7186123090098014
230	0x3fd45367c8abfcdf	0.3175906619726003
231	0x3fc6a1417ba788cb	0.17679613626302734
232	0xbfe00e432f9c3287	-0.5017410211454071
233	0xc0013ea8424e5643	-2.1555943660885375
234	0x3ff6bb5e95159ae3	1.4207444976433912
235	0x3fe9d41bf9712f30	0.807142245475438
236	0x3fe2ad199c1e8489	0.583630375786144
237	0xbfdd9d22d635fba0	-0.4627158252623591
238	0x3ff0393e73b11301	1.0139755744177708
239	0x3ff21a244865c157	1.1313822582270257
240	0xbfe59960e5f3a161	-0.674972962498071
241	0xbfeb6eb85fc7d15c	-0.8572656508172645
242	0xbfe8b42281e9a03a	-0.7719891106944552
243	0xbfa5b8f91867157c	-0.0424268572128694
244	0xbff9d1811b5c8651	-1.6136485165410657
245	0xbff652f8aab1fc19	-1.3952566783698386
246	0x3fd22191b398ffdd	0.2832988981135694
247	0x3fe1d058a9260fba	0.5566829017338855
248	0xbfdd368888d51721	-0.4564534507993461
249	0xbfc555244b8df6ca	-0.16666082085787642
250	0xbfd676786d125cad	-0.35098086024795344
251	0x3fd71e4414f7a6e6	0.36122228667828293
252	0xbfec5197f4b556a4	-0.8849601535282159
253	0x3fcfdd28ac5ab59c	0.2489367333959479
254	0x3fe23dfab4c00882	0.5700658350254033
255	0xbfe17d437c811c16	-0.5465409690594949
